app/src/main/ml/model.tflite (tflite, 148704 bytes, 10 tensors)

sequential/conv2d/Relu;sequential/conv2d/BiasAdd;sequential/conv2d_2/Conv2D;sequential/conv2d/Conv2D;sequential/conv2d/BiasAdd/ReadVariableOp f4 [32, 3, 3, 3]
000000 ca c3 0c 3a e6 e3 1c b9 85 67 67 39 6c 9a 0e 39
       0.0005369751 -0.00014962218 0.00022068441 0.00013599702
000010 fc 47 e5 b9 d3 c5 6d 39 70 67 7b b8 12 7f 42 39
       -0.00043731916 0.00022675777 -5.9939397e-05 0.00018548619
000020 d6 ec fd 39 42 83 bd b9 e9 f6 99 b9 c3 fa bd 39
       0.00048432377 -0.00036146684 -0.00029366396 0.0003623572
000030 fc 87 0d b9 f6 e0 d8 38 f2 d4 be b8 d7 69 b8 39
       -0.00013497466 0.00010341585 -9.09957e-05 0.00035174072
000040 a4 cb b9 b3 0d b2 60 b9 b4 a8 a4 39 ed 32 02 ba
       -8.651776e-08 -0.00021428634 0.0003140621 -0.0004966695
000050 4d 80 9e b9 67 bf 96 b9 f7 b2 ee b8 e3 18 14 b8
       -0.000302317 -0.00028752835 -0.00011382059 -3.5309127e-05
000060 39 de 05 ba 53 29 dd b9 8f 90 e1 38 b7 64 0b 3a
       -0.0005106661 -0.00042183194 0.00010755762 0.0005317437
000070 70 e4 6e 39 4c 39 08 3a 77 59 00 b9 e8 5f 32 ba
       0.00022782548 0.0005196526 -0.0001224036 -0.0006804452
000080 bc 5c ff b9 4f ac 00 ba 26 12 58 b9 1a 48 f1 b8
       -0.00048706483 -0.00049084885 -0.00020606126 -0.000115052055
000090 ed 5f 06 3a 3e 33 31 38 89 bb 6c 39 7c fc b4 b9
       0.00051259884 4.224781e-05 0.00022576576 -0.0003452039
0000a0 81 82 a0 38 84 e8 22 38 3c 5b 8e b8 db 35 12 b9
       7.653703e-05 3.8840357e-05 -6.7880814e-05 -0.00013943708
0000b0 87 51 9d b9 1c df e2 39 ab 16 da 39 0b c0 b5 b9
       -0.00030006116 0.00043272309 0.0004159709 -0.00034666093
0000c0 1f 8e b4 39 7f d9 94 b9 ec bc ba b9 d0 02 17 3a
       0.00034438164 -0.00028390807 -0.00035617442 0.0005760612
0000d0 cd 28 70 b9 3f e5 0e 3a 44 4f ec b7 90 09 93 b9
       -0.00022903383 0.00054510304 -2.8170303e-05 -0.0002804515
0000e0 23 63 00 38 24 b2 f1 b8 6e 26 c2 b9 ed 3c a7 b9
       3.0609906e-05 -0.00011524957 -0.00037031196 -0.00031898115
0000f0 33 1c 3f b9 8a 7b f4 b9 f5 fe d2 39 ae 76 7d b9
       -0.00018225684 -0.0004663135 0.0004024428 -0.00024172172
000100 61 63 44 b9 41 ce 03 3a 9c 28 b9 b9 db d6 70 39
       -0.00018729038 0.00050279876 -0.00035316206 0.00022968223
000110 1c ce fb b9 c4 b1 a9 b9 89 c5 89 b7 cc 6f df 39
       -0.00048028014 -0.00032366638 -1.6423657e-05 0.0004261717
000120 3e fd 0a 3a c7 5c f3 39 92 45 0e 3a f3 a0 91 b9
       0.0005302018 0.00046417696 0.0005427237 -0.00027776472
000130 c2 a7 31 39 94 cb 00 3a 06 9b 6b b8 ad 99 18 b9
       0.0001694253 0.0004913148 -5.6172743e-05 -0.00014553098
000140 fe 2e f0 39 5e 76 16 ba 91 fd 52 b9 5d 9d fb 37
       0.0004581138 -0.0005739684 -0.00020121621 2.999481e-05
000150 d9 7c 8e b9 cb 0d 85 39 0d 00 a6 b9 34 fd 87 38
       -0.0002717737 0.00025378013 -0.00031662025 6.4844644e-05
000160 30 af 43 b9 b9 45 2c ba ff c8 34 39 6e 3a 49 b9
       -0.00018661912 -0.0006571669 0.00017241015 -0.0001919062
000170 e4 74 51 b9 f5 62 a7 b9 e1 5d 2d b9 8c 68 a4 b9
       -0.00019975338 -0.0003192645 -0.00016533538 -0.0003135841
000180 a9 f0 51 39 49 cd 7b b9 02 cb 32 39 b6 92 f5 39
       0.00020021446 -0.000240137 0.00017051029 0.0004683935
000190 8d 23 cc 39 6f 61 37 b9 5a 69 04 3a 14 9a a0 b9
       0.000389364 -0.00017488537 0.0005051099 -0.00030632375
0001a0 ef 89 0d 39 e3 7e 91 39 f0 08 0b b9 48 e6 c1 39
       0.00013498192 0.00027751093 -0.00013259402 0.00036983402
0001b0 22 eb 0a 3a 12 ec 12 3a 6e 10 a5 b9 a9 08 d7 39
       0.000529932 0.0005604635 -0.00031483494 0.00041014448
0001c0 3c ee cc b9 1d 59 d9 39 c5 84 c7 39 a8 8e dd 39
       -0.0003908741 0.0004145586 0.0003805516 0.00042258692
0001d0 16 79 d1 39 4d e7 9c 39 28 0b f8 37 30 ea a6 b8
       0.00039953802 0.0002992697 2.9569099e-05 -7.959118e-05
0001e0 9e 65 0b 39 40 10 e0 39 8c 97 98 b9 12 6d fd 39
       0.00013293928 0.00042736717 -0.0002910461 0.00048337184
0001f0 16 2d 8a 38 fa 39 d3 b9 20 2a 3d 39 ef 8b a3 b9
       6.588751e-05 -0.00040288252 0.00018040137 -0.0003119404
000200 6d 0b 62 39 60 7f 22 3a 7f 36 96 38 62 a7 14 39
       0.00021557296 0.000619879 7.162708e-05 0.00014176735
000210 e0 3f c1 39 b4 23 b0 39 3b de e6 b8 4e 49 20 b9
       0.0003685942 0.00033595937 -0.00011008648 -0.00015286097
000220 7a 17 ba 39 36 17 27 b8 90 a0 01 39 91 69 66 b9
       0.00035494176 -3.983752e-05 0.00012362213 -0.00021973836
000230 bc fd e0 39 66 38 df b9 b4 1c 6c b7 dc 0f 1e 3a
       0.00042913656 -0.00042575895 -1.4073379e-05 0.0006029585
000240 e1 4c 7c b8 55 fd c2 39 4c 97 ba b9 df 45 27 3a
       -6.015308e-05 0.0003719131 -0.0003558941 0.0006380956
000250 99 50 4c b9 85 ef 1c 3a 70 5d aa b9 cd da f6 b9
       -0.00019484981 0.0005986619 -0.00032494543 -0.00047083796
000260 83 13 08 ba 68 d2 91 39 20 6b 8d b9 aa 68 bb 39
       -0.0005190896 0.0002781332 -0.0002697343 0.000357454
000270 7e 4e fc b8 68 dc fd 39 50 1c 39 b9 bd 93 c3 b8
       -0.00012030917 0.00048420136 -0.00017653522 -9.325843e-05
000280 79 ba d7 b9 31 07 cc b9 72 f9 ae 39 bf 37 ad 38
       -0.0004114693 -0.0003891527 0.00033373717 8.259666e-05
000290 5d 1a 29 39 65 fb bb 39 9b f3 e9 b9 2c 8b 97 39
       0.00016126917 0.00035854723 -0.00044622723 0.00028904655
0002a0 56 7e af b6 7b c7 64 39 77 65 d1 38 31 f1 b6 b8
       -5.230114e-06 0.00021818087 9.984796e-05 -8.723362e-05
0002b0 74 5e dc b9 33 d7 c6 b8 68 d6 02 39 17 61 bb 38
       -0.00042032043 -9.48146e-05 0.00012477639 8.934939e-05
0002c0 18 76 d9 39 6c 5b b2 b9 e4 7b 2d 39 57 8a 3a 39
       0.00041477452 -0.0003401892 0.00016544719 0.00017789878
0002d0 75 5f fe b9 4a 5d e4 b9 4b 36 ed b9 1b a1 73 39
       -0.00048517776 -0.00043557055 -0.00045244614 0.00023234302
0002e0 da 0e 87 b9 6e e3 26 39 bb ec a0 39 37 7d 0a ba
       -0.00025760272 0.00015915718 0.00030693956 -0.00052829407
0002f0 76 3e 98 b9 04 ab c5 b7 f9 c5 f8 b9 13 4b f9 37
       -0.00029038236 -2.3563865e-05 -0.00047449747 2.9718072e-05
000300 ca 42 43 39 17 78 6c b9 88 43 95 38 48 fb 8c 39
       0.0001862153 -0.00022551451 7.117452e-05 0.000268901
000310 47 29 ea 39 dd 8a 0e ba 24 79 da 39 46 cb e6 39
       0.00044662712 -0.00054375624 0.00041670457 0.0004402047
000320 8a 67 95 b9 f5 b7 bb b9 65 b0 10 ba 52 11 63 38
       -0.00028496637 -0.00035804478 -0.0005519449 5.413715e-05
000330 46 a9 68 39 8a d1 c8 b9 ee 53 fe b9 6e 10 97 39
       0.00022188303 -0.0003830309 -0.00048509188 0.00028813205
000340 d9 4b c9 38 8d e9 9a b8 31 af bf b9 a3 e4 8e 39
       9.5985546e-05 -7.3867945e-05 -0.00036560887 0.00027254698
000350 de 9b 2d b9 73 2b 0e 39 1c 2a 55 b8 80 58 4a 39
       -0.0001655663 0.00013558361 -5.0822375e-05 0.0001929719
000360 ed bf c7 39 f1 3d 94 b8 14 fc 75 b9 30 f5 b6 39
       0.00038099234 -7.0687274e-05 -0.00023458927 0.00034896424
000370 dc c8 b9 39 f6 34 ec 38 2a 00 87 b9 65 57 16 38
       0.00035435602 0.00011263222 -0.0002574933 3.584418e-05
000380 8d 67 3e b9 0f 7e 95 b8 64 58 3a b9 d0 92 f7 b9
       -0.00018158388 -7.128354e-05 -0.0001777127 -0.00047220895
000390 5c 37 f9 38 53 4d 00 3a b7 c5 86 39 8a 51 12 39
       0.00011883557 0.00048943347 0.0002570578 0.0001395402
0003a0 63 ef 0a ba 97 f9 a0 b9 f9 a4 ab 39 54 d6 f2 b9
       -0.00052999536 -0.00030703537 0.00032738576 -0.00046317524
0003b0 da b6 c8 b9 ef a0 39 38 7f cd 8e 38 c4 00 6f b8
       -0.00038283208 4.425732e-05 6.809364e-05 -5.6982753e-05
0003c0 85 6b 3c ba 0e 40 38 ba fc 7c f1 b9 af bf 96 38
       -0.00071876525 -0.0007028588 -0.00046060223 7.188261e-05
0003d0 e8 cc 64 39 63 bb 12 37 c8 25 b2 b9 93 71 b1 b9
       0.00021820108 8.7459075e-06 -0.00033978955 -0.0003384469
0003e0 28 60 5c b9 ae 8b 2b ba 8b 91 17 ba ca 8f e6 b9
       -0.00021016656 -0.0006543946 -0.00057818805 -0.0004397615
0003f0 3f 3f e3 b7 61 92 d4 39 c0 ce 0d 39 a6 8f f9 b7
       -2.708996e-05 0.00040544852 0.00013523828 -2.9750005e-05

sequential/conv2d/BiasAdd/ReadVariableOp f4 [32]
000000 78 88 fa 3c 55 8c d0 3c 35 01 aa 3c b7 a2 35 3d
       0.030582651 0.02545754 0.020752529 0.04434463
000010 05 09 44 bd 02 c6 0f 3d 10 2d 02 3d 26 f0 45 3d
       -0.047860164 0.035100944 0.031781256 0.048324727
000020 52 c9 15 3b 94 89 cb 3c 44 00 17 ba c2 fc 40 3d
       0.0022855592 0.024845876 -0.00057602325 0.04711605
000030 36 49 ab bc 75 89 3d 3d 19 10 e5 3c 89 8e 64 3d
       -0.020908933 0.046273667 0.027961778 0.055799995
000040 2d 7c ad bb 33 35 1a 3c be b1 1b bc ee 37 82 bc
       -0.005294344 0.009412098 -0.009502826 -0.01589581
000050 77 69 c7 3c 88 4e 25 3d 73 5c d2 3c fe d1 d0 3c
       0.024342282 0.040358096 0.025678849 0.025490757
000060 95 75 10 3d 63 95 c4 3c c7 d3 0a bd a5 3f 22 bc
       0.035268385 0.023997014 -0.033893373 -0.009902869
000070 f9 7b 51 bc 52 a0 fb 3c ac 38 94 3d f3 ff 9a 3c
       -0.012785905 0.030716095 0.07237372 0.018920874

sequential/conv2d_1/BiasAdd/ReadVariableOp f4 [32]
000000 52 9b 7d bb 18 73 0c bc ad 1e 06 3c 20 d7 cc 3b
       -0.0038697314 -0.008572362 0.008186025 0.006251231
000010 91 7b 00 3c d5 19 ba 3c 06 8b 17 3c 4a b3 9b b9
       0.0078419605 0.022717396 0.009249454 -0.00029697485
000020 bc 55 09 3c 3e 50 63 bc e4 08 03 3d 5e 37 15 3c
       0.008382257 -0.013874112 0.0319909 0.009107439
000030 9a 28 6a 3c ae 3e 9a 3c 90 45 aa 3b 48 11 01 3c
       0.014291907 0.018828716 0.005196281 0.007877655
000040 af 7f 06 3d cf 77 e1 3c 7c 2b 58 37 cf 08 a7 ba
       0.032836612 0.02752295 1.2884728e-05 -0.0012743714
000050 09 01 f9 ba 31 10 ae 3c de 89 53 bb b9 f5 37 bc
       -0.0018997501 0.021247955 -0.003227822 -0.011228018
000060 e5 1f a6 3c c2 c2 e0 bb ca c9 55 3c 1f ae 7d 3b
       0.02027888 -0.0068591544 0.013048599 0.003870852
000070 cd 85 5a 3c 00 00 00 00 f5 78 15 bc e6 9f e2 3b
       0.013337565 0.0 -0.009123077 0.006916034

sequential/conv2d_2/BiasAdd/ReadVariableOp f4 [32]
000000 5d f8 3e bc 04 2a d6 3b 90 e3 b4 3a f5 77 15 3c
       -0.011655894 0.0065357704 0.0013800729 0.009122838
000010 71 e9 fd 3b 40 2a 35 bc 30 ac 37 bc dd c2 40 3c
       0.0077487756 -0.0110574365 -0.011210486 0.011765209
000020 b6 b5 bf ba f7 1b bf ba a0 d5 38 bb 10 2f 57 3b
       -0.0014626298 -0.0014580478 -0.0028203502 0.0032834448
000030 2e 86 d3 3c 26 29 20 3b 3e 18 88 3b bc e6 9f 3c
       0.025820818 0.002443859 0.0041532805 0.019519202
000040 d2 dd 31 3c 61 79 f2 3b 0d 42 5e 3a 2d e6 47 bc
       0.010856109 0.0073997234 0.000847847 -0.012200874
000050 65 bb 16 bc bf a9 5c 3b aa f9 9d ba 95 c9 a7 bb
       -0.009199952 0.0033670512 -0.0012052555 -0.005120466
000060 31 e1 1e 3c 65 59 08 bc b0 b0 ef ba 2f 23 64 3c
       0.0096972445 -0.008322095 -0.001828691 0.013924404
000070 b5 8b d5 3b f6 7d 96 3c de 37 5b ba 48 21 08 bc
       0.0065168985 0.01837061 -0.0008362512 -0.008308716

sequential/conv2d_1/Conv2D f4 [32, 3, 3, 32]
000000 8e 7a 90 bd e2 9d 47 3d 55 6f 13 3d b0 bf ad bd
       -0.070546255 0.048734553 0.035994846 -0.08483827
000010 6f 46 af bd 99 27 ce bb 02 df 98 3d b5 07 d8 bc
       -0.08558356 -0.0062913415 0.0746441 -0.026370862
000020 1b 8d 44 bd 2a 5d ac 3c e3 7b 5f 3d 0a 3c a8 bc
       -0.04798613 0.021040518 0.054561507 -0.020536441
000030 dd 14 9e 3d 1d 32 d4 3c c0 2e 1d 3d a7 38 15 be
       0.07718823 0.025902802 0.038374662 -0.14572392
000040 df b2 cb 3c e1 02 94 3d f6 ad 08 bd f7 cc f4 3c
       0.024865566 0.072271116 -0.033369027 0.029882891
000050 3c e7 b4 bc 3c 5e 4b 3d 86 66 e1 bd 1e 03 09 3d
       -0.022082917 0.049650416 -0.11005883 0.03345024
000060 30 ca 9f bd e1 33 e9 bc 5a f2 b5 bd d8 be cc bd
       -0.07802236 -0.02846712 -0.088841155 -0.09997338
000070 86 96 a5 3b eb 10 16 bd be be c8 3d b3 ea 42 3b
       0.005053344 -0.036637228 0.09802006 0.0029741942
000080 13 a8 c8 bd 4f 4f 01 3d bf f8 1b bd b1 c1 b7 3b
       -0.097976826 0.031569775 -0.03807902 0.0056078066
000090 83 95 6c bd 0e 15 83 3b f0 7d 2b bc 87 db ad 3d
       -0.057759773 0.0040003126 -0.010467038 0.08489137
0000a0 a9 85 22 3c 9e 2b 83 3d 16 05 b2 bc 08 6a b4 bd
       0.009919562 0.06404804 -0.02173094 -0.08809286
0000b0 f6 0e b1 3d 74 65 1d be 06 7a a7 bd c1 1d b9 3c
       0.08645432 -0.15370733 -0.08177571 0.022597196
0000c0 f1 28 d3 3d 00 44 26 3c 3d 5a b8 bc 4e 4b a3 3d
       0.10310543 0.010148048 -0.022503966 0.079733476
0000d0 1d a2 df bd ec 69 86 3b 0f b0 aa bd f8 ab c5 3d
       -0.109195925 0.0041019823 -0.08334362 0.09651941
0000e0 88 25 ce 3d 87 86 a0 3c 0b 33 0d 3d 41 49 bd 3d
       0.10065752 0.019595398 0.034472506 0.09242488
0000f0 93 9a c8 3c b1 b3 b9 bc d4 3c 37 bd 81 36 1b bd
       0.02448777 -0.022668691 -0.044735745 -0.037893776
000100 4b 61 3f 3d f5 8f 33 3d fa c2 5d bd d2 72 14 3d
       0.046723645 0.04383846 -0.054141022 0.036242314
000110 38 4e c8 3d 22 72 85 3d 3d ce 77 3c e0 d6 cf 3d
       0.09780544 0.0651591 0.015124855 0.10148406
000120 a5 3b ed 3c 3d 63 7d bd a1 21 85 bd 4e dd c7 3d
       0.028959105 -0.06186222 -0.06500555 0.097590074
000130 48 b7 cf bc e7 a2 c3 bd 45 4d 46 bc f1 37 a9 bc
       -0.02535595 -0.095525555 -0.012103383 -0.020656558
000140 1f 49 be 3d 60 6a 86 3d 00 4f 8d 3d c3 2d 0a 39
       0.092912905 0.06563258 0.06899834 0.00013177753
000150 d6 8b 0d bc 6e 31 3d bd d4 14 9e bd c7 bf b8 bb
       -0.0086392965 -0.046189718 -0.077188164 -0.005638096
000160 ec e3 e5 3a 60 c3 93 bd d4 f0 8d 3d 76 26 54 bd
       0.001753924 -0.07214999 0.069307 -0.05179449
000170 3f 4b 3b bd f7 a7 48 bc 04 e5 b0 3d 42 c6 be 3d
       -0.045726057 -0.012247077 0.08637431 0.093151584
000180 09 b3 99 bd a2 03 8a bd 95 a2 d3 3c 9f 36 cd bd
       -0.07504851 -0.06738974 0.025834361 -0.10020184
000190 a3 9f c1 bd 12 4b a7 bc 1c 64 84 bd 20 4f e8 bd
       -0.094542764 -0.020421539 -0.06464407 -0.11343217
0001a0 77 96 96 3d e4 8f b1 bd 28 2c b1 bd 29 25 c0 bd
       0.07352918 -0.08670023 -0.08651 -0.09382088
0001b0 85 8c 81 bc 00 2d 59 3c b0 b5 bb 3d 61 c2 04 be
       -0.015814075 0.013255358 0.091655135 -0.12964775
0001c0 6c c3 c8 bc 4b 0b ab bd 32 1d e2 bc 0f 12 8a 3d
       -0.024507247 -0.08351763 -0.027601812 0.06741726
0001d0 16 68 77 bd f0 30 5a bc 72 32 8e bc 9e f4 88 bd
       -0.060402 -0.013317332 -0.017358039 -0.06687282
0001e0 d3 8b cb 3d 9d d7 06 3c 12 1e 53 3d 0f 6a f3 3c
       0.09938779 0.008230117 0.05154235 0.029713659
0001f0 90 a8 74 3b 88 39 32 3d 9b a9 68 bd d7 eb de bd
       0.0037331916 0.043511897 -0.056802373 -0.10884827
000200 21 52 21 3d 6b b4 05 be ed 72 45 3c 82 99 23 3d
       0.039384965 -0.13057105 0.012051326 0.03994132
000210 58 af 84 3c 30 06 9b 3b 3a 77 7d bd dc 7d c2 bd
       0.016196892 0.004730962 -0.06188128 -0.09496662
000220 91 6a 7f bd 29 5c 10 be 10 82 bc 3a 23 1b 44 be
       -0.06235749 -0.14097656 0.0014382023 -0.19150977
000230 3c 54 aa 3b 89 de 08 be 8b 00 59 bd d2 56 be bc
       0.00519803 -0.1336614 -0.052979033 -0.023234759
000240 2e a9 1d bd 5d 3e a8 3c 5e 35 84 bd 54 38 a6 3d
       -0.03849142 0.02053755 -0.064554915 0.081162125
000250 f9 e5 dd 3c b2 84 c3 3d 61 8e d7 bd 04 a9 3b 3c
       0.027087199 0.09546794 -0.105252035 0.011453871
000260 4a 47 80 bd a6 b5 01 3d 02 bc ce 3d 4f ea af bd
       -0.06263597 0.031667374 0.100944534 -0.08589613
000270 d6 1e dc 3b e2 a4 06 be d2 04 4d bd 65 70 98 bd
       0.006717543 -0.13148835 -0.050053425 -0.074433126
000280 79 43 68 bd b4 fb f7 bc 29 87 7c bb 20 63 97 3c
       -0.056704972 -0.030271389 -0.003853271 0.018479884
000290 41 8f 62 3c cf f4 fe 3d 3f 32 b3 3d d0 99 7a 3d
       0.0138281 0.12449037 0.08749818 0.061181843
0002a0 7a 07 c5 3d 53 75 32 bd a5 30 cb 3d 4a be 45 3d
       0.09620567 -0.04356892 0.099213876 0.048277177
0002b0 55 2a 5c bd 72 8b 25 be f0 27 89 3d ca 76 5a bc
       -0.05375131 -0.16166475 0.066970706 -0.013333986
0002c0 fb fa d4 3d 1e 24 15 3c 86 de b6 3d 47 08 e8 3d
       0.10399433 0.009102849 0.08929162 0.11329704
0002d0 1b 4b b5 bd 21 50 ce bd 02 77 46 3c ea c9 c2 3c
       -0.08852216 -0.10073877 0.012113335 0.02377792
0002e0 33 0c d2 bd 01 03 01 bb 21 44 7d 3d 10 56 7b 3d
       -0.10256233 -0.0019685628 0.06183255 0.061361372
0002f0 cd b9 e1 3d 2c 69 b0 3a ba bf ee 3c 86 a2 9e 3d
       0.11021767 0.0013459078 0.029144157 0.07745843
000300 fe 35 cb bd f8 fe da bb 44 89 e2 bc 85 0d 4a 3d
       -0.099224076 -0.0066832267 -0.027653344 0.0493293
000310 c7 58 3a bc 1c 71 b9 bd f8 1f 6e bd 42 7e 4e bd
       -0.011373705 -0.09054777 -0.058135957 -0.050413378
000320 10 05 b4 bc ff ff 68 3d ed b8 ab 3d 57 23 83 bc
       -0.02197507 0.056884762 0.08384881 -0.016008062
000330 5b 18 26 bc b5 b8 3e bc 9e 3a b4 3d ef 5d 2a 3c
       -0.010137643 -0.011640717 0.08800243 0.010398372
000340 74 cf 06 bd 92 4e 93 bd d4 ad c1 3b 58 5d 47 3d
       -0.032912686 -0.071927205 0.0059106145 0.048673004
000350 c4 4b 8a 3c aa 80 05 3e e7 8e 78 bd ff 98 a3 3c
       0.016881831 0.13037363 -0.060683157 0.019970415
000360 20 1e 5c bd be a5 39 3d fb 7f bf 3d 56 27 c1 3c
       -0.053739667 0.04532408 0.09350582 0.023578327
000370 f1 4c a7 3c 4c 1b 1c bd 0e 01 a8 3d bf f6 5a bc
       0.02042243 -0.03811197 0.08203326 -0.013364493
000380 e8 a1 de bc 73 b5 ca bd 96 13 6d 3c a5 ad 9b bd
       -0.027176812 -0.0989789 0.014470002 -0.076014794
000390 75 99 1e 3c 9a a8 10 3c 23 25 8c bd 89 69 97 bd
       0.009680142 0.00882926 -0.06843021 -0.07393176
0003a0 b5 bd a7 3d c1 a4 16 3d 67 0a 36 bd d1 e3 77 bc
       0.081904806 0.036778215 -0.044443514 -0.015129999
0003b0 30 ef 06 bd 1d ca 98 bd d4 8e 30 3d 53 e1 cc bd
       -0.03294295 -0.07460425 0.04310496 -0.10003915
0003c0 5b b1 6f bd cb fd 28 3d 14 9b 58 bd 67 29 d2 3d
       -0.05851875 0.04125766 -0.05288227 0.10261803
0003d0 02 8a 42 3c fc c8 54 bd 1f e6 29 3d 68 a4 df bd
       0.011873724 -0.051949486 0.041479226 -0.1092003
0003e0 a2 ea 39 3d d3 97 7d 3d 4b 16 7e 3d c2 02 df 3d
       0.04538978 0.06191237 0.06203298 0.10889198
0003f0 3c 5b ee 3d 33 e5 10 3d 75 75 51 bd f1 eb fa bc
       0.11638495 0.03537483 -0.051137406 -0.030630084

sequential/conv2d_2/Conv2D f4 [32, 3, 3, 32]
000000 a7 c2 8c 3c 71 83 c4 3d b6 e7 5c bc 67 a7 85 bd
       0.017182661 0.09595383 -0.013482979 -0.0652607
000010 dc a3 a9 3c 7e 7d 27 bd 25 6f 3f 3d 1b 3e d8 bd
       0.020708017 -0.040891163 0.046736855 -0.10558721
000020 b0 f7 c0 bd 48 db ef 3c ee 66 3a 3c ee a8 5f 3a
       -0.09422243 0.029279366 0.011377079 0.00085319474
000030 15 f2 ea bc a5 ae 8b bd f5 cd 6f 3c f6 73 19 bd
       -0.028679887 -0.0682042 0.014636506 -0.037464105
000040 3f 4a fe 3c 60 e4 d2 3b 88 15 26 3c 07 63 f3 3c
       0.031041263 0.006435916 0.010136969 0.029710306
000050 a2 9c 99 3d 04 2d b9 3d 19 84 a2 bd 24 fa 82 bd
       0.075005785 0.09041789 -0.07935352 -0.06395367
000060 87 27 ca bd e4 7d a6 bd 2f e5 c3 bd 6f 33 7a 3c
       -0.098708205 -0.081294805 -0.09565198 0.015271052
000070 ce 1b 98 3d fe 74 83 bd 46 34 b7 3b e4 39 b5 bd
       0.07427178 -0.06418799 0.0055909483 -0.088489324
000080 ae 1a bd bc 00 d8 35 3d 8a 88 37 3d 9c 3a 0a 3d
       -0.02308401 0.044395447 0.04480795 0.0337473
000090 89 9d c1 bd f8 3f 03 3c 09 43 49 3c a7 f0 d5 bd
       -0.094538756 0.008010857 0.012284049 -0.104462914
0000a0 2a ab d0 bd 9c ca d3 3c 8a f7 5e 3c 4e 4c f5 3c
       -0.10188897 0.025853448 0.013608823 0.029943611
0000b0 50 8d 38 bd 5e 92 de bd 6a 2b 94 bd b0 99 e9 3c
       -0.04505664 -0.10867761 -0.07234843 0.028515667
0000c0 6b fa 0e 3d 81 4e 4b bd 87 1c 8d bd 4d 78 2d bd
       0.034906786 -0.049635414 -0.06890207 -0.042351056
0000d0 16 45 c3 3c 00 96 07 bd dc 09 be 3d f7 8b 89 3d
       0.023836654 -0.033102036 0.09279224 0.06716149
0000e0 98 9f a7 3c bc 52 73 3d 53 e4 0e 3d 0f 5a b6 3d
       0.020461842 0.059405074 0.034885716 0.08903896
0000f0 3c 6d ec 3c 90 02 9d 3d 98 9a cc bc 7f 63 4e 3d
       0.02886068 0.076665044 -0.02497606 0.050387856
000100 92 3c a0 bd 80 1a 71 bd 00 0b ad bd 94 76 77 bc
       -0.07824053 -0.058863163 -0.08449364 -0.015103955
000110 0f 33 77 3d e2 66 80 3d 25 0b 41 3d 07 8f 96 bb
       0.060351428 0.06269623 0.04712977 -0.004594687
000120 26 78 d0 bc a6 d9 9a 3a 18 76 74 3b af 46 48 3d
       -0.025447916 0.0011814132 0.0037301835 0.048895534
000130 7b 3f 84 bd 26 fd 99 3c 23 a3 c7 bc 6a be 3a 3c
       -0.064574204 0.018797468 -0.024369782 0.011397937
000140 ae 38 4f bd d1 4a ac bd 5c 12 56 3d bf e7 cb bd
       -0.050591163 -0.084127076 0.052263603 -0.099563114
000150 6f 0b 2d 3d aa 30 55 bd a3 7e e0 bb 92 70 a5 bd
       0.042247232 -0.052048363 -0.006851034 -0.08078112
000160 ee d5 58 bd f8 f8 84 bd ea ff 4f bd 74 03 31 bd
       -0.052938394 -0.064927995 -0.050781168 -0.043216184
000170 a3 4f 9c 3d c1 4a 8b bd 1e 28 73 3d eb 6c 80 3d
       0.07632377 -0.068013676 0.05936443 0.062707745
000180 12 45 a0 3c 60 b1 22 bd 57 21 a2 bd 9b 68 84 3d
       0.019564185 -0.03971994 -0.07916515 0.064652644
000190 8e 49 77 3d 2f 92 b3 bc dd d8 85 bd 7d d7 d9 bd
       0.06037288 -0.021920292 -0.06535504 -0.10636804
0001a0 f7 f6 8d 3d 87 22 14 bb d9 d9 4e 3d 9e e1 a3 bd
       0.069318704 -0.0022603588 0.050500724 -0.080020174
0001b0 ae 2e cc 3c 83 cf ab bd 68 48 51 3d a9 60 b0 3c
       0.024924602 -0.08389189 0.051094443 0.021530466
0001c0 21 31 1b 3d 4c 3a 8c 3c c0 52 c8 bb 1b 48 7f bd
       0.03788865 0.017117642 -0.00611338 -0.062324625
0001d0 69 c4 5c bd 9a b8 55 3d 35 00 94 bd 94 31 89 bb
       -0.05389825 0.052178003 -0.07226602 -0.0041868184
0001e0 60 5e 19 3d e7 75 9d bd d0 e5 a2 3b 3a 9c 2d 3c
       0.03744352 -0.07688504 0.0049712434 0.010596329
0001f0 a7 60 56 3d 56 a4 ba 3d d0 df 4d bd 88 e5 82 bd
       0.05233827 0.09113376 -0.050262272 -0.06391436
000200 ba c6 93 3d 95 05 6d bd 40 ff 9e bc 0f 88 66 3d
       0.072156385 -0.05786665 -0.019408822 0.0562821
000210 f4 8d ca bc 50 c5 92 3c e3 c4 30 bd 5d 82 50 3d
       -0.024725892 0.017916352 -0.043156516 0.050905574
000220 7c c4 54 3d ed 4c ac bd 31 b7 91 bd 54 97 59 3d
       0.051945195 -0.0841311 -0.07115019 0.053122833
000230 8b c2 c0 bd e4 25 55 bd 79 b8 6f 3d 11 f3 da bd
       -0.09412106 -0.05203809 0.058525536 -0.106908925
000240 54 98 86 bd 7c 44 52 3d 10 32 12 3c a5 89 77 bd
       -0.06572023 0.051334843 0.008923069 -0.060434002
000250 18 2f c2 bb e0 9e a8 bd 3b 16 29 3d 8e c3 cd bc
       -0.005926024 -0.08233428 0.041280966 -0.025117662
000260 0a f5 1a bd 94 c2 98 bd cc 84 cb bd 2f d9 5c bd
       -0.037831344 -0.07458988 -0.09937438 -0.05391806
000270 02 23 af bd 1c 35 96 3d 42 ff 13 bd 3a a3 b2 bc
       -0.08551599 0.073343486 -0.036132105 -0.021806348
000280 ff 38 84 3d 2a 6e a9 3d 50 18 e6 3c 67 dd 8b bd
       0.06456184 0.08272965 0.028087765 -0.068293385
000290 a4 6c c6 3c 00 ed 55 3d 36 82 dc 3c 05 c5 e2 bc
       0.024221726 0.052227974 0.026917558 -0.027681837
0002a0 9c cf c1 3c e4 7d b4 3c d6 d9 13 3d af 56 38 bd
       0.023658566 0.022032686 0.036096416 -0.045004543
0002b0 cf 99 a8 3d 84 70 7d bd 9c d5 62 bc 8c 9e dc 3c
       0.08232462 -0.06187488 -0.013844874 0.02693107
0002c0 6b d8 80 bd 3c 09 f7 bc f4 30 c4 bd 29 dc 86 bd
       -0.062912785 -0.03015577 -0.095796496 -0.06584961
0002d0 a2 8c 21 3c f3 f7 f4 3b cf e6 c0 bd 46 18 f7 bc
       0.00986019 0.007475847 -0.09419023 -0.030162942
0002e0 b6 37 89 bd f8 d0 a9 bc d9 0f 8a bd aa 73 af bd
       -0.06700079 -0.020729527 -0.06741304 -0.08566983
0002f0 f3 31 55 bc 9a 6d 85 3d ec 7b a5 bd 51 48 d3 3c
       -0.013012397 0.065150455 -0.08080277 0.02579132
000300 74 6b 5c bd db 73 71 bc d9 63 d7 bb fe 87 89 bb
       -0.053813413 -0.014737095 -0.006573182 -0.0041971197
000310 7b 51 52 3d 9b 51 5e 3d 7a c4 15 3d 3f 7a bf bd
       0.051347237 0.054277044 0.036564328 -0.093494885
000320 64 1e 48 3d 0c 28 a8 bd db 4f c0 bb bd 3c a5 bc
       0.048857108 -0.08210763 -0.0058688945 -0.020170564
000330 48 0b a1 3c 8e 90 f3 bc a5 f5 9c 3d 46 29 ac 3d
       0.0196587 -0.029732015 0.076640405 0.0840631
000340 85 26 3f 3c e9 a9 a3 bd 3e 65 a6 bd d9 09 b1 3d
       0.011666899 -0.07991392 -0.08124779 0.086444564
000350 7b 4e 3f bc 15 51 3e bd 8f 66 8e bd 81 fe 04 bd
       -0.011676426 -0.046464045 -0.06953155 -0.032469276
000360 d4 e7 ee bc 94 c3 0f 3d e3 56 d0 bd e8 27 d2 bd
       -0.029163279 0.035098627 -0.10172822 -0.10261518
000370 e2 6a 28 3c ea d7 10 bd 77 6c 0c bc 6a 05 7c 3c
       0.010279389 -0.03536216 -0.008570782 0.01538215
000380 df a7 37 bd 50 5a af 3d d1 1c c2 bd 32 c7 e7 3c
       -0.04483783 0.085621476 -0.094781525 0.028293226
000390 0a 5c 6b 3d 3a cb b4 3d ac 96 6a 3d 9e 79 b1 bc
       0.057460822 0.08827825 0.0572726 -0.021664437
0003a0 99 e3 ad 3d aa 96 b5 3d 2d ba 92 bd 63 d5 8a 3b
       0.084906764 0.088666275 -0.071644165 0.0042368635
0003b0 f4 f4 d6 bd c2 46 18 3d ee 0f 26 3c 82 21 76 bd
       -0.1049594 0.037176855 0.010135634 -0.06009055
0003c0 57 9a c6 3b fc f7 70 3d a0 19 fc bc a3 40 81 bd
       0.006060879 0.058830246 -0.030773938 -0.063111566
0003d0 26 dc c7 bd 82 0b bb bd 5c 16 a1 3c 5b bf 96 3d
       -0.09758787 -0.09133054 0.019663982 0.07360717
0003e0 fa 73 19 bd 12 39 ac 3d 32 f8 85 bd f2 0b af bd
       -0.03746412 0.08409323 -0.0654148 -0.085472
0003f0 70 4b a9 bd 05 a8 40 bd 25 24 d3 bb d5 e5 82 3d
       -0.08266342 -0.047035236 -0.0064435177 0.06391493

sequential/dense/BiasAdd/ReadVariableOp f4 [128]
000000 d6 67 12 bc 87 23 31 bc c0 01 08 3c 62 48 cb bb
       -0.008935889 -0.010811693 0.0083011985 -0.006203697
000010 72 b8 33 3b 98 a4 0a bc 00 00 00 00 41 c9 3a bc
       0.002742317 -0.008462094 0.0 -0.011400522
000020 00 00 00 00 cd 2b 72 3c 54 76 a4 3c 5e 52 10 bc
       0.0 0.014780951 0.020075954 -0.0088087
000030 4a f6 87 3c 4c f8 6c bc 02 e7 69 bb 00 00 00 00
       0.016596932 -0.014463495 -0.003569067 0.0
000040 6d 48 d6 bb 81 ca fe bb 1d f1 d2 bb 10 9c 29 bc
       -0.0065393955 -0.007775605 -0.0064374343 -0.01035215
000050 00 00 00 00 d4 61 46 3c 35 8f ea 3b 29 39 0b bc
       0.0 0.012108285 0.007158185 -0.008497515
000060 f4 dd 30 3b 7b b0 46 bc 84 30 57 3c cc e2 a4 3a
       0.0026987763 -0.012127037 0.013134126 0.0012579798
000070 ea 9c ac 3b db 03 b3 3b 65 83 73 bc 39 22 4b 3c
       0.005267729 0.005463106 -0.01486287 0.012398296
000080 78 21 2b 3c d3 93 18 bc 9f 7b 97 bc 43 26 9b 3c
       0.010444991 -0.009312588 -0.018491564 0.018939143
000090 88 de 07 3c eb b3 0c 3c 06 d5 a1 3c 8a 98 2e bc
       0.008292802 0.008587818 0.019754898 -0.010656485
0000a0 dd 00 79 3c 70 1f 55 3c 74 25 28 3c 6f 5d 81 3c
       0.01519796 0.013007984 0.010262836 0.015791623
0000b0 4e 4b 60 bc ef 83 16 bc df d4 41 bb d5 20 0d 3c
       -0.013689829 -0.009186729 -0.0029576344 0.008613785
0000c0 d3 37 74 3b e6 5e b0 3c de 36 94 bb 00 00 00 00
       0.003726472 0.021529626 -0.0045231422 0.0
0000d0 67 5d 54 bc d3 bf 2f 3c fe 1f 64 3c 6c 20 16 bc
       -0.012961722 0.010726887 0.013923643 -0.009163003
0000e0 00 00 00 00 87 03 92 bc d1 f9 c9 3b 1b 92 4a bb
       0.0 -0.017823948 0.0061638136 -0.003090984
0000f0 13 23 65 3c 80 1b 86 3b 17 cb 0a bc ac 5b 69 3c
       0.013985413 0.0040926337 -0.008471272 0.014243048
000100 b3 f6 b8 3c d3 91 70 b9 ba b9 c4 bb 62 e4 20 3c
       0.022578573 -0.00022942507 -0.0060035856 0.009820076
000110 a0 00 b0 ba ca a0 67 bc 6e d5 1a 3c e2 b8 4f bc
       -0.0013427921 -0.014137456 0.0094503 -0.012678357
000120 8e 57 b3 3c e2 25 9e bb db de 44 3c ba 52 66 3b
       0.021892335 -0.0048262933 0.0120160235 0.0035144524
000130 c2 82 43 b9 30 9f cd 3b 57 03 53 bc fa e6 d6 ba
       -0.0001864536 0.00627508 -0.012879214 -0.0016395741
000140 d8 3c b2 bb 4b 60 28 3b 0e 74 f6 bb a4 88 9e 3c
       -0.005439382 0.002569216 -0.007521159 0.019352265
000150 90 1a 19 bc cc 5b a8 bb c9 70 80 3b b7 6c 2b 3c
       -0.009344712 -0.005137896 0.003919695 0.010462931
000160 be 26 a7 3c 66 8f e4 b9 81 90 67 ba 80 30 e4 3c
       0.020404216 -0.0004359439 -0.00088334834 0.027855158
000170 00 00 00 00 17 75 9c 3a 3d b8 31 3b 6a 3f bf 3c
       0.0 0.0011936751 0.0027117871 0.023345668
000180 e7 15 1f bc 56 19 9f 3c 07 0d 78 3c 52 b1 2d 3c
       -0.009709812 0.01942126 0.015139825 0.0106013585
000190 68 f2 82 3c b3 47 71 3c d6 e3 80 3c 57 8d b1 3c
       0.015984729 0.014726567 0.01573364 0.021673841
0001a0 9e 02 06 ba 9c f4 66 bc 5c 5a b6 3c 00 00 00 00
       -0.00051120843 -0.014096405 0.022259884 0.0
0001b0 67 72 48 bc 60 2b 6a bc 59 8e 09 bc 8d 2c 3b bb
       -0.012234307 -0.014292568 -0.008395755 -0.002856049
0001c0 46 99 09 bc 67 d2 7b bb 60 de d3 3c da 89 94 ba
       -0.00839836 -0.003842497 0.025862873 -0.0011332587
0001d0 1b 53 54 3c c0 a0 40 3c ba 2b 97 3c 62 24 43 3c
       0.012959267 0.011757076 0.018453468 0.01191053
0001e0 5b 12 93 bb da a3 a9 bc da 65 50 bc 8b b8 8b bc
       -0.004488272 -0.020708013 -0.012719596 -0.01705577
0001f0 ac f1 c6 3a 5f 2b b4 3c fb d9 2e 3b c5 da 86 3c
       0.0015178225 0.021993337 0.002668022 0.01646174

sequential/dense_1/BiasAdd/ReadVariableOp f4 [2]
000000 33 e4 49 bc 36 e4 49 3c
       -0.012322473 0.012322476

sequential/dense/MatMul f4 [128, 128]
000000 34 84 bf bd 18 43 3a 3c 19 19 0b 3e 9d e0 28 3c
       -0.093513876 0.011368535 0.13583793 0.010307458
000010 0a bd cb 3d 2f de 3d 3d 2c 20 96 3c 6e 83 3b 3e
       0.09948166 0.04635447 0.018325888 0.18311855
000020 8c 1f 02 bd 61 93 c4 bd de b1 f3 bd 24 d1 20 3e
       -0.031768367 -0.09598423 -0.1189916 0.15704781
000030 0c c1 a8 bc 69 5e d2 3d ac 87 04 bd c4 45 73 3d
       -0.020599864 0.102719136 -0.03235595 0.059392706
000040 db 05 95 bd ec 9e 20 be d8 a5 34 bd 8e 73 3c bd
       -0.072765075 -0.15685624 -0.044103473 -0.04600864
000050 92 e6 da 3d f7 ed 9f 3d 0d b6 d2 3d 95 d0 95 bd
       0.10688509 0.0780906 0.1028863 -0.073151745
000060 78 52 09 be 2a b8 de bd 36 ec 30 be 2a fe 07 bd
       -0.13410366 -0.1087497 -0.17277607 -0.033201374
000070 89 8f 1d 3e 15 b8 89 bc e4 29 ed bd af 25 02 3e
       0.15386786 -0.01681141 -0.11580256 0.12709688
000080 46 27 6c 3d d4 65 0f 3e 3e b5 8c bd c3 c9 27 3d
       0.05765464 0.14003688 -0.06870507 0.0409639
000090 39 ae dd bc db e7 ba 3d c4 95 b0 3d 46 de 32 3d
       -0.027060615 0.09126254 0.086223155 0.043669008
0000a0 dd ce cc 3d b2 96 03 be 3d 97 04 be 00 e5 9d bd
       0.100003935 -0.12850454 -0.12948318 -0.07709694
0000b0 a3 7a 51 3d 9b 67 e1 3d c6 d1 2c 3d 34 51 7c 3d
       0.051142346 0.11006089 0.042192243 0.06160088
0000c0 75 d4 44 3d 28 52 03 3e ed cb 1b 3e 1b 84 67 bd
       0.048054177 0.12824309 0.1521451 -0.05652247
0000d0 1b 42 a4 bc 3d fe fa 3d ac 56 41 3d ca 0a 92 3d
       -0.020051053 0.12255523 0.047201797 0.07130964
0000e0 f7 5f ea bd 2b de 90 3d 77 52 e0 3d d3 a2 4d 3d
       -0.11444085 0.07073625 0.10953229 0.05020411
0000f0 0d 96 7c 3d cb 2c 9b bb cd a0 ac bd 52 97 9d bd
       0.061666537 -0.0047355643 -0.08429108 -0.07694878
000100 d0 15 1a bd cb 13 06 3e 6a 4c 62 bd 6e 05 b8 bd
       -0.03761846 0.13093488 -0.055248655 -0.08985411
000110 77 49 ed bd ee f1 11 be 5e d8 e1 3d e5 ff 5f 3c
       -0.11586278 -0.14252445 0.11027597 0.01367185
000120 32 1a 9c bd 79 a7 59 bd 3a ad 1d 3e c3 09 58 bd
       -0.07622184 -0.05313823 0.15398112 -0.052743685
000130 39 b9 4e be ea 21 9e bd c6 aa 9c bd 4e be b3 3d
       -0.20187844 -0.07721312 -0.0764976 0.08776532
000140 d5 cd 08 bd 02 6a 1a bd 81 84 e7 3d f7 9b 95 3c
       -0.03339942 -0.037698753 0.1130457 0.018262846
000150 cb 22 1c 3e 65 d9 ec 3c 75 af f7 3d 4e 35 0f be
       0.15247647 0.028912256 0.12094013 -0.13985178
000160 2c c9 81 bd 8b 83 8f bd 73 8b 05 bb e1 ca 27 3e
       -0.063371986 -0.07007512 -0.0020377308 0.16385986
000170 96 17 f7 bd 07 e2 03 bd bd 54 98 3c 7c 02 3f 3d
       -0.120650455 -0.03219798 0.018595094 0.04663323
000180 b2 43 ef 3c 3d 19 14 3e ac 6d 89 bd 4a b5 22 3e
       0.029207084 0.14462753 -0.067103714 0.15889469
000190 c7 43 ac 3d 46 be 04 3e 66 36 0b bd 9d 91 c8 bc
       0.08411365 0.12963209 -0.033987425 -0.024483496
0001a0 c2 25 a3 3d bc 5f ce 3d b3 37 7a 3d 07 cd ce 3d
       0.07966186 0.10076854 0.061088275 0.100976996
0001b0 82 5b b7 3d 24 59 ea 3d b4 a2 9d 3c 8a c8 4d bc
       0.089530006 0.114427835 0.019242622 -0.012560019
0001c0 92 6e 3e 3d f4 81 a1 3d bc 32 a6 3d b1 20 b9 bd
       0.046492167 0.07886115 0.081151456 -0.090394385
0001d0 e4 36 0b be 5c dd a9 3d d3 48 b0 bc 89 02 0d 3e
       -0.13595158 0.08294174 -0.0215191 0.13770498
0001e0 52 1f 56 3c f7 b3 0c be e6 f7 85 bc 79 61 08 bd
       0.013068991 -0.13740526 -0.016353559 -0.033296082
0001f0 d9 0a a8 3b e1 de 7f bd b4 3d 15 3e 6d b8 31 be
       0.0051282463 -0.062468413 0.14574319 -0.17355509
000200 7c e7 6b 3d 2c 01 80 bd 09 a5 19 3d f8 cb 34 bd
       0.057593808 -0.062502235 0.037510905 -0.044139832
000210 e0 07 4b bd 37 4f 82 3d c9 d2 4f bd d1 47 eb bd
       -0.049568057 0.06362765 -0.05073813 -0.11488307
000220 55 5d bc bc 79 99 f0 3d 7a 0d 1c 3d a7 71 ef bd
       -0.022993723 0.117480226 0.03809879 -0.11691599
000230 af 2f 10 3c 0b 1a 00 3e 77 4c ac bd 3d 92 b2 39
       0.008800431 0.12509935 -0.08413022 0.00034059762
000240 e6 2a b4 bd 5b f4 12 3d 64 22 f2 bd 26 88 1c be
       -0.08797245 0.035877567 -0.11822966 -0.15286312
000250 42 64 9d bc d2 3e e2 ba d7 37 f2 bd 4e 10 f8 bd
       -0.019212846 -0.0017261154 -0.11827057 -0.12112485
000260 41 c4 fc bd 1c 94 83 3d ce db b9 bd 67 95 fc bd
       -0.1234212 0.06424734 -0.090751275 -0.12333184
000270 b1 aa 1c be 9c 98 e8 3d b6 b7 e4 3d b3 fd 82 bc
       -0.15299489 0.11357233 0.111678526 -0.015990114
000280 94 74 45 3d a8 65 1b bd 98 a6 1c be df 3f 9c bd
       0.04820688 -0.037938744 -0.15297925 -0.0762937
000290 90 a1 2b 3c 8f df be bd 3f 56 13 be 64 12 d5 3d
       0.010475531 -0.09319984 -0.14388369 0.10403898
0002a0 39 8a ad 3d 88 9a 78 3d b1 89 d2 3c 16 20 8c 3d
       0.084736295 0.060694247 0.025700422 0.068420574
0002b0 e8 0d e4 3d f3 d6 c9 3c 98 41 27 bd dc 7e fd 3d
       0.11135465 0.024638629 -0.04083404 0.12377712
0002c0 12 bc e9 3d 8d c9 e7 bd a0 b6 34 bc 2a 37 5d 3d
       0.11412825 -0.1131774 -0.011029869 0.054007687
0002d0 92 e4 d7 bd 8c 2d 83 3c 2e 55 7d 3d 80 df 7f bc
       -0.10541643 0.01601293 0.06184881 -0.015617251
0002e0 a0 87 d7 bd cd 6d ca 3c 81 e2 54 3d 28 ef 83 3d
       -0.10523915 0.02471056 0.051973823 0.064421
0002f0 77 fb a8 3b 86 76 12 be c1 65 ed bb 7c ab 77 3c
       0.00515693 -0.14303026 -0.007244796 0.015116569
000300 fb 43 9a 3d 24 a9 01 be b1 53 cd 37 1e 4b ed bd
       0.075324975 -0.12662178 2.4476876e-05 -0.11586593
000310 95 37 1a 3e 6e 29 ee 3d 13 3f 6a bd ca 09 87 bd
       0.15060265 0.11628996 -0.05718906 -0.06593664
000320 32 6a 4d 3d e0 15 d7 3d 9d 38 04 bc 3f 60 a8 bb
       0.050150104 0.10502219 -0.008070138 -0.0051384266
000330 2d 99 0b be 01 35 ca bc 3f d7 d1 3d 74 a2 66 3d
       -0.1363265 -0.024683477 0.10246133 0.05630727
000340 68 ed 47 3d 85 bc e2 bd 4a 00 78 bd 50 15 9d bd
       0.048810393 -0.110711135 -0.06054715 -0.07670081
000350 45 72 1d be 81 06 1e be 23 c3 7a bd 4c 49 53 3d
       -0.15375622 -0.15432169 -0.061221253 0.051583573
000360 8b c5 05 be bd 39 70 3d 6c 6e bd bd f5 41 04 be
       -0.13063638 0.058648814 -0.09249577 -0.12915786
000370 17 a7 4c bd 3d 47 95 bc 2a 6a 95 bd 40 3d 13 bd
       -0.049964037 -0.018222446 -0.0729564 -0.035947084
000380 3c d9 05 be 30 1a 98 3d 2b 53 21 bd ca 75 55 bd
       -0.1307115 0.0742687 -0.039385956 -0.052114286
000390 d0 fe 14 3c 90 97 9b bb 89 fe 78 bd f8 77 f5 bd
       0.009093955 -0.0047482923 -0.06078962 -0.11985773
0003a0 d9 4f 85 3b 5f 1e 4b bd ff 4a e7 3d 11 ff b6 bc
       0.0040683565 -0.04958951 0.11293601 -0.022338422
0003b0 91 4d 3e bd 26 3c 54 3d de 3f 20 be d1 e8 ec 3c
       -0.04646069 0.051815175 -0.15649363 0.02891961
0003c0 2e 01 0e 3e a0 d4 0d be 2a e2 07 bd 18 5d 10 3e
       0.13867638 -0.13850641 -0.03317467 0.14098012
0003d0 36 3f c4 3d d6 73 99 bd 0d 53 c0 3d ee ee 97 3d
       0.09582369 -0.07492797 0.09390841 0.07418619
0003e0 e0 e3 98 3b ce 65 63 ba 72 75 9a bb c7 e2 ac bd
       0.0046658367 -0.0008674533 -0.0047137076 -0.08441692
0003f0 eb c7 af bd 60 ac f2 bd 31 79 c2 3d eb 1e 27 be
       -0.08583053 -0.11849284 0.09495772 -0.16320388

sequential/dense_1/MatMul f4 [2, 128]
000000 12 f1 7b 3e e2 b8 51 3d 71 20 a4 bb 2b 8c c7 3d
       0.2460368 0.05120171 -0.00500875 0.09743532
000010 34 40 b1 bc ec bd bd 3d ac 7b 55 be 00 25 06 3e
       -0.02163706 0.0926474 -0.20847958 0.13100052
000020 e0 f2 02 3d e9 f1 13 be f9 bb 54 be af 8b b4 3d
       0.031969905 -0.1444775 -0.20774831 0.08815705
000030 43 ed 01 3e b8 c2 05 3d e2 d9 4a 3e 3b 6b e4 bd
       0.12688164 0.0326564 0.19809678 -0.11153265
000040 41 24 98 3d b7 56 3d 3e b1 0d cb bc 09 8b ee 3d
       0.0742879 0.1849011 -0.024786802 0.116476126
000050 b6 89 9b 3d 7d ad f6 bd bf 4f 27 3e dd a7 2f 3d
       0.07594626 -0.12044809 0.16339014 0.042884696
000060 d6 ab bd 3d 23 33 2f bd 85 90 30 be a7 c3 9d 3d
       0.09261291 -0.042773377 -0.1724263 0.07703333
000070 fe 37 6f 3d 70 a3 17 3d 15 5f 89 3d 51 2c e2 3d
       0.058403008 0.0370211 0.067075886 0.11043609
000080 8a bb 9e 3d 84 f5 13 3e 00 24 37 3d 54 d1 1c 3b
       0.07750614 0.14449126 0.044712067 0.002392848
000090 93 e1 80 3e f0 89 ce 3d ac 70 83 3e 75 d1 f0 bc
       0.251721 0.10084903 0.256719 -0.029396752
0000a0 80 7b 4e 3e 8a f9 81 be 8f ad 7c bd c6 f8 14 3e
       0.20164299 -0.25385696 -0.061688956 0.14548025
0000b0 c7 3b e0 bd be 67 b0 bd 76 32 73 3e 1f 07 3d bd
       -0.109489016 -0.08613537 0.23749718 -0.04614937
0000c0 0e df 11 be e9 e2 00 be 6a 41 f0 bd d4 61 3e bd
       -0.14245245 -0.1258656 -0.11731227 -0.046480015
0000d0 84 36 20 3e eb df 13 3e 06 dd 84 3e 2a d3 36 3e
       0.15645796 0.14440887 0.25949878 0.1785399
0000e0 91 a3 22 3e 42 2e 1b bd e2 6c 8a 3e 5b 6a e6 3d
       0.15882708 -0.03788591 0.27036196 0.112507544
0000f0 ef c9 1c be 7c 45 ed 3d ec 20 6e 3d 4c 85 c7 bd
       -0.15311407 0.11585519 0.058136865 -0.09742221
000100 e0 2a bf 3d b3 78 3e 3d 1f 9e 2c 3e 79 e6 2f 3e
       0.0933435 0.046501826 0.16857193 0.17177762
000110 d5 e1 09 3e 07 a0 29 3e 7a 2b 87 bc 6e 8a 32 be
       0.13465054 0.16564952 -0.016500223 -0.17435619
000120 a8 e7 bc bd 9d e0 4a 3e 89 a5 e8 bb db 3c de bc
       -0.092238724 0.19812246 -0.0070998115 -0.027128628
000130 91 29 9c 3d 80 43 45 bd fe 83 b0 bd d6 fd 89 3e
       0.07625116 -0.048160076 -0.086189255 0.26951474
000140 ed c5 6b 3e 11 1d 89 3d a1 5c 1f 3e d0 36 f8 bd
       0.23024721 0.06694997 0.15562679 -0.1211983
000150 e7 62 13 3e 1d 03 1c 3d ac c2 23 be 83 cb 2e 3e
       0.14393197 0.038088907 -0.1599223 0.17069821
000160 ab 8b 1d 3e b0 72 b6 bc 28 a1 2c 3e 78 8b 69 be
       0.1538531 -0.022271484 0.16858351 -0.2280711
000170 96 7b bf bd 7a 71 03 3e 86 9e 6b 3e 6d 71 0f be
       -0.09349744 0.12836257 0.2300969 -0.14008112
000180 b9 22 48 3e b2 2a 96 bd a4 3c 89 be 5b fa 9e 3c
       0.19544496 -0.07332362 -0.26804078 0.019406488
000190 45 ee e0 bd d3 06 5b be 67 64 93 bd 41 f2 e2 bc
       -0.10982946 -0.21389322 -0.071968846 -0.027703406
0001a0 f9 21 f6 bd 7f 00 42 3d 68 aa 48 be f3 45 bb bd
       -0.120181985 0.047363754 -0.19596255 -0.09144201
0001b0 20 f3 c3 3d 6f 64 7b bd ca ec 60 3d c5 a9 41 3e
       0.09567857 -0.061375078 0.05491332 0.18912418
0001c0 e9 36 b7 3c 63 89 47 3e 79 af 49 3d 60 56 76 3e
       0.02236505 0.19486003 0.04923961 0.24056387
0001d0 0c 8d ce 3b 95 d7 52 3e 97 88 cf bd 7b a6 e2 3c
       0.006303435 0.2059005 -0.10133474 0.027667275
0001e0 50 74 61 bd 5b 8c 74 bc ba f1 5a bc 92 58 1f 3e
       -0.055042565 -0.0149260415 -0.013363296 0.1556113
0001f0 6a 41 7e 3e 7d c4 12 be e6 31 5b 3e 9b b5 e4 bd
       0.24829641 -0.14332767 0.21405753 -0.11167451
000200 d7 88 3e be f7 e3 fe 3c 91 dd 40 be 8c 89 ce bd
       -0.18606888 0.031114561 -0.18834521 -0.10084829
000210 24 10 65 be 0b 02 c9 bd 1f 2e 18 3e 43 0f 46 be
       -0.22369438 -0.09814843 0.14861344 -0.1934176
000220 00 6d 4f bb 38 36 62 bd a1 f5 cc bd e0 cf f3 bd
       -0.0031650662 -0.05522749 -0.100077875 -0.119048834
000230 88 89 a5 bd 59 2a 55 3c 91 b3 32 be bf ab f6 bd
       -0.08082873 0.013010585 -0.17451312 -0.12044477
000240 fe 11 0a 3e ab 66 e9 3d 29 bb 80 3d 83 82 15 bd
       0.13483426 0.113965355 0.06285698 -0.03650142
000250 f8 1f 2a be fb d6 3b 3e c0 58 39 be 87 9d 97 bd
       -0.16613758 0.18343727 -0.18100262 -0.07403093
000260 56 29 28 be d3 41 c9 3d 96 06 25 3e 81 b0 70 3a
       -0.16422018 0.09827008 0.16115794 0.00091815746
000270 29 cd 3e be 42 c8 5d be bb 06 0b 3d 4c d2 76 be
       -0.1863295 -0.21658424 0.033941966 -0.2410366
000280 a1 34 d3 bd c0 f8 aa bd f0 47 4a 3d b1 eb 63 3e
       -0.103127725 -0.083482265 0.04938501 0.22257878
000290 00 25 9d bd d8 74 76 be 2c ae 24 be 47 6d ae bc
       -0.07673073 -0.2406801 -0.16082066 -0.021292342
0002a0 ab a6 10 3d cc 7a d8 3d ac 64 34 3e a1 42 9a bd
       0.035315197 0.10570297 0.17616528 -0.0753224
0002b0 bc e3 05 be 3f 8c da bb 6f 32 83 be 9e a5 04 be
       -0.13075155 -0.0066695507 -0.25624415 -0.12953803
0002c0 57 56 3d 3d 0f 01 f7 3d 95 c9 34 3d 19 ec ee bd
       0.04622492 0.12060749 0.044137556 -0.11666126
0002d0 84 24 bf ba 1e ad 76 3e 0c 87 72 3d 0a d3 34 39
       -0.0014583026 0.24089476 0.059210822 0.00017244756
0002e0 53 90 ce bd b1 9f 4f be a7 07 ca bb d4 a8 c0 bd
       -0.100861214 -0.20275761 -0.006165463 -0.094072014
0002f0 57 cc 30 3e 27 43 34 bd 17 bb f7 bd d6 80 63 be
       0.1726545 -0.044009354 -0.120962314 -0.22217116
000300 54 ce 39 be 36 e8 1d be 5f 6c 3e be 96 c6 d3 bd
       -0.18145114 -0.15420613 -0.18596028 -0.10340612
000310 b1 e6 21 3e 67 09 60 bd c5 08 d4 3d aa 37 7c bd
       0.15810658 -0.054696467 0.10353235 -0.061576523
000320 16 f8 60 3e a8 5b a1 bd 6d 6b 2c 3e 8f d2 36 3e
       0.21969637 -0.0787881 0.16837855 0.17853759
000330 aa 7f db bd f7 d9 ba 3d 08 3f 4c 3e c0 f3 0c be
       -0.10717709 0.09123605 0.1994592 -0.13764858
000340 5c 65 05 3e 9a 8d 59 be 6e d9 ba 3c 7c 6e 81 3e
       0.13026947 -0.21245423 0.022808757 0.25279605
000350 92 19 1f 3c 19 d3 bb 3c 2e 6f d4 3d 51 b9 6b be
       0.009710686 0.022927808 0.10372768 -0.23019911
000360 9f 09 3c bd 1b de 08 3c 6a a6 5d be c1 1a 8e ba
       -0.045907613 0.008353735 -0.21645513 -0.0010841714
000370 fe 4d 82 3d 64 29 12 3d 64 f8 cd 3d 2d 96 ad 3d
       0.06362532 0.035684004 0.100571424 0.084759094
000380 79 79 8d 3d 04 bc bf 3c 19 c1 1c be 3c 3d e3 3d
       0.06907935 0.023405083 -0.15308036 0.11095664
000390 2a b2 3b 3d fd 5f 37 3d d6 58 64 3e 89 39 79 3e
       0.045824207 0.044769276 0.22299513 0.24338354
0003a0 d2 82 7e 3d 64 00 4b bc f2 44 65 bd 88 47 41 be
       0.06213648 -0.01239023 -0.055973954 -0.18874943
0003b0 2a 11 65 bd 55 ef 13 3e b2 98 84 bd 07 e7 13 be
       -0.055924572 0.14446767 -0.06474437 -0.14443599
0003c0 0f 6a eb bd 28 02 14 be 8a fb dd bd dc 8f 38 be
       -0.114948384 -0.14453948 -0.10838993 -0.18023628
0003d0 d7 a3 09 3e 69 18 ab 3c a9 f5 fc 3c e1 ae fb 3d
       0.13441406 0.020885663 0.030878859 0.12289215
0003e0 c3 28 1f be 24 ff ad bd c0 db 8a 3d 7e 4e 83 bd
       -0.15542893 -0.0849593 0.06780195 -0.064114556
0003f0 6f c4 66 be 38 5b 5c 3d 86 a7 34 3d 69 41 40 3e
       -0.22535871 0.05379793 0.044105075 0.18774952
